COSMIC_Data_Mining/kernel_pca_model.pkl_02.npy (npy, 240080 bytes, 1 tensors)

array (column-major) f8 [600, 50]
000000 a4 28 da 89 2f 1f 91 3f e0 38 ea 3b 7a f5 8f 3f
       0.01672052649386359 0.015604929879625862
000010 80 d7 96 0b 93 77 9b 3f d8 0b 92 1f 63 41 9b 3f
       0.026823327619886594 0.02661661987486838
000020 c0 37 b6 d5 22 79 9d 3f ed cb 2b e4 e6 e0 9b 3f
       0.028782409948284515 0.027225120235879464
000030 7d ad 73 6c f2 cc 8c 3f a3 ab 0d 19 f5 ee 90 3f
       0.014062780317962926 0.016536550192011067
000040 40 d2 9c f9 19 b4 98 3f a0 0d 5f 4e ef aa 95 bf
       0.024124532566206947 -0.02115987697449173
000050 53 dc 1d b0 54 9f 9a 3f bd 59 d6 2a a8 34 8a 3f
       0.025998423814112503 0.012795747573176247
000060 97 5f fd c4 09 20 8a 3f 05 1b 37 c9 61 e5 8a 3f
       0.012756420444631362 0.013132823899366661
000070 72 59 2d a2 e4 0a 8b 3f 74 89 4e c1 f7 ef 8c 3f
       0.013204370688680387 0.01412957724261752
000080 cb ad 7f ef 54 54 8e 3f 46 b5 2d 61 4c c6 98 3f
       0.014809287604257279 0.02419394820338041
000090 50 9e c3 cc 88 87 94 bf 01 6b 5b 71 c1 dc 8b 3f
       -0.02004827260762304 0.01360465171039982
0000a0 d9 2b 2d f1 00 04 9a 3f 54 47 79 6d d3 7c 99 3f
       0.02540589782737954 0.024890235478160008
0000b0 a9 01 97 f9 06 b0 ab bf 91 78 90 ea 24 a9 7a bf
       -0.05407735630751926 -0.006508964733283788
0000c0 12 c8 51 75 d9 1c 9e 3f b4 af 0d 85 8d 9f 7a bf
       0.029406926904307858 -0.006499817668423381
0000d0 c5 19 49 7d 5c fb 9d 3f e3 01 fe ac bf 6d 98 3f
       0.02927917971308049 0.023856158193213416
0000e0 f0 84 f6 90 d3 7d 98 3f 64 fd 08 d9 97 e5 98 3f
       0.023917489741170195 0.02431332838227486
0000f0 96 57 29 14 43 68 98 3f 83 1a b7 71 e5 1b 81 bf
       0.02383522806697832 -0.00835398915559194
000100 73 46 ed 1b 89 8a 9a 3f c9 9f c0 82 a9 0c 9f 3f
       0.025919096307296784 0.030321739774222842
000110 f2 53 b6 92 95 2c 6d 3f 3c 1d 2c d2 13 79 94 bf
       0.0035612984990600555 -0.019993123724842507
000120 11 70 70 4f 9f 02 9a 3f be c0 74 f2 cb ef 96 3f
       0.02540062830313167 0.022399126695007203
000130 11 b6 33 96 18 00 8a 3f 70 76 c9 57 f8 4f 67 3f
       0.012695495685387777 0.0028457498977292814
000140 45 d2 ea 4b bb 3d 9a 3f e9 ea d9 b5 65 5a 63 bf
       0.02562611246931314 -0.002362440732040273
000150 19 03 7e 3a 59 d4 98 3f da 7e 94 b8 3e 64 9d 3f
       0.02424754542835492 0.028702716842530097
000160 06 d5 de b3 5f 25 98 3f f2 f2 e4 5c d6 ca 9f 3f
       0.023580069878979003 0.031047200603313514
000170 02 54 d6 a7 b4 19 9d 3f ba a3 53 27 b0 6e 74 3f
       0.02841837191006747 0.004988372898176269
000180 e2 bf e2 10 68 43 85 bf 37 e9 1e 5c 0f 6f 98 3f
       -0.010382473960220243 0.023861160276035433
000190 03 cc e8 d3 f2 36 9a 3f 51 b3 47 d1 cb 90 8b 3f
       0.025600237068101005 0.013459770511838139
0001a0 68 22 c4 a2 cf ff 8e 3f 13 ec d0 02 72 94 98 3f
       0.015136358408669184 0.02400377409160732
0001b0 0a 04 87 df 04 72 88 3f 68 66 3b 28 e6 d7 99 3f
       0.011936224051966721 0.0252376520209964
0001c0 01 2e 83 ea da 69 b0 bf a0 ec dd d0 78 40 a0 bf
       -0.0641152212658014 -0.03174188184399296
0001d0 d4 73 5d a9 b3 05 8b 3f 24 12 08 5d b8 a7 98 3f
       0.013194469076262573 0.02407730167216661
0001e0 73 47 4c b8 2c 69 98 3f 84 23 62 3c 04 56 98 3f
       0.02383870959153662 0.023765627084262345
0001f0 43 58 82 cd 7c 0a 98 3f e3 ae 09 15 bc ce 8b 3f
       0.023477506678851744 0.013577908889792883
000200 35 c8 da ce e6 57 98 3f 79 ab 0a 14 56 6c 98 3f
       0.02377281796970739 0.023850769971129424
000210 d0 f8 99 41 3c d3 9a bf 6a fa 43 cf e7 74 7c bf
       -0.026196424011225627 -0.006947427278872634
000220 4a 28 4e 84 4e 78 7b bf 7e 5e 16 ea 43 eb 83 bf
       -0.006706530290907573 -0.009726076680450332
000230 47 bd cf f4 5d 91 71 3f 17 7d 56 39 76 aa 9d 3f
       0.004289023415352595 0.028970572709679034
000240 3a f4 b9 b1 c3 33 99 3f 80 9f 29 6e 51 69 84 3f
       0.024611528132016704 0.009966503309627006
000250 6c a0 bc 4e 8d a4 70 3f 46 20 bb ea 81 c8 bc bf
       0.0040631789995942795 -0.11243450146423681
000260 30 59 e5 b3 01 bd 81 bf 2b ea 77 14 a6 bd 9a 3f
       -0.008661282827841704 0.026114077567379972
000270 a4 c6 ba d5 11 c3 6f 3f c0 9b ed 6f e6 8e 9a 3f
       0.0038771961534046096 0.02593574579386959
000280 cc 8a d8 43 37 97 87 bf 4c 22 0c 6e a3 5b a0 bf
       -0.011518890150062154 -0.03194914549209624
000290 82 69 2c fd 4c e8 98 3f bb c3 4a 0d 3b 6a b5 bf
       0.024323656990512095 -0.0836522014094631
0002a0 c1 1f 5d 6e 33 a3 98 3f f6 57 90 d0 c7 b2 99 3f
       0.024060062037534417 0.02509605608437223
0002b0 a6 14 20 d6 b1 c5 99 3f ab 4a 2c 9b d2 73 99 3f
       0.02516820783059317 0.024855890961655785
0002c0 09 1e ad a3 9b de 79 bf 66 2d a3 4a bd e0 98 3f
       -0.006315811125041212 0.024294812851434776
0002d0 7a 86 3d 60 ee fb 71 3f 5c ad 2b a3 9f 3b 99 3f
       0.004390650897990173 0.024641508421081468
0002e0 85 db bc ad ed 32 99 3f 4a 0c 98 ac e4 ee 98 3f
       0.024608339051350753 0.024348805460260338
0002f0 5c 15 df 45 d3 35 98 3f 87 b4 61 79 56 4c 98 3f
       0.02364282716714193 0.02372870555739273
000300 54 87 a2 72 18 16 b5 bf a9 c4 bd 82 e7 ce ac bf
       -0.08236840056136191 -0.05626605483019748
000310 cb 83 38 33 2f 33 9c 3f 66 88 47 37 d5 44 9a 3f
       0.027539002896563674 0.025653201579082817
000320 96 ff 0f 16 b6 3e 99 3f fb d3 ef 72 55 8b 86 bf
       0.02465328702601218 -0.01100794560441364
000330 0f 37 e9 3d 96 09 98 3f 4c c3 6b 81 fa ae 6e 3f
       0.023474071053263986 0.003745545643475989
000340 ec 84 2d 51 f8 8f 9a 3f c5 a1 31 6b dd 17 a4 bf
       0.025939826922130857 -0.03924457486647585
000350 9b 5d 90 0b 5c 93 98 3f 58 e9 58 2a 29 6e 94 bf
       0.023999632077985927 -0.01995148011176559
000360 54 97 18 f5 d3 21 9a 3f 67 6e 00 a9 e1 18 b2 bf
       0.025519668421245825 -0.07069216133134547
000370 06 3c 8e 33 ab 4d 9a 3f c6 86 b6 53 fd 9c b1 bf
       0.025686907788948353 -0.06880172055982844
000380 a0 47 56 54 58 06 98 3f 45 88 b2 fb ef b5 98 3f
       0.023461704394840077 0.02413153623331989
000390 40 e9 93 ee a1 4a 98 3f 6d b8 fd 27 2e ec 97 3f
       0.023722200571662855 0.023361893835890536
0003a0 d7 ad c8 06 f3 7b 98 3f 1e 22 58 40 b8 31 99 3f
       0.02391032914071708 0.024603728225004777
0003b0 48 7d 79 46 fe 60 99 3f 80 54 15 be fb 04 99 3f
       0.024784062434602988 0.024433072544827628
0003c0 cb c3 05 9f f8 b4 98 3f f8 04 c1 a0 64 8e 98 3f
       0.024127850252117427 0.023980686484951413
0003d0 3d 89 47 19 8f b8 98 3f b9 30 54 8d d1 29 98 3f
       0.024141536634382666 0.02359702515700299
0003e0 fa 13 0a fe c7 a0 98 3f f0 55 de 8a 68 7d 99 3f
       0.024050831680614927 0.024892457462177775
0003f0 2a 6e 8b 64 94 24 99 3f db b5 a3 e1 41 9a b3 bf
       0.024553602825888067 -0.07657253035332394
000400 db b5 a3 e1 41 9a b3 bf db b5 a3 e1 41 9a b3 bf
       -0.07657253035332394 -0.07657253035332394
000410 30 9b 24 c0 8e 2f 9f 3f ea 24 2b 00 68 09 b6 bf
       0.030454855420568083 -0.08608102802385856
000420 a7 71 48 ee aa bf 9a 3f e8 0f 7f f0 ee 80 bc bf
       0.026121779245032475 -0.11134236690037336
000430 22 bc 60 67 90 ef ad bf 75 77 ff d9 2c f7 9d 3f
       -0.05846835386216066 0.02926321106485071
000440 af 2a eb 5d 6c 76 84 bf a6 b0 2b fd 08 65 98 3f
       -0.009991499534767937 0.02382291836958985
000450 14 ec 11 b0 5f 1a 99 3f c3 5a ba 7d 4c a1 98 3f
       0.02451467048784302 0.024052806066346088
000460 32 a3 16 26 4e 98 99 3f 67 bd 6d ea 66 18 99 3f
       0.024995060991986402 0.02450714879836138
000470 45 da 43 e3 24 41 98 3f 22 06 0b 86 97 46 99 3f
       0.02368600499263553 0.02468334918626714
000480 1c 21 3f f6 c6 d7 98 3f fc 4d 95 ce d1 5f 98 3f
       0.02426062467546429 0.02380302260764998
000490 ea f4 54 3d 7b 42 9a 3f ae 60 20 21 1c c5 99 3f
       0.025644231432342325 0.02516597702205619
0004a0 68 42 f8 86 02 08 9a 3f bb d5 9c f4 f5 72 98 3f
       0.025421180236721602 0.02387604051110313
0004b0 1c 3d ac f7 13 d6 97 3f d8 68 e4 50 7c 59 9a 3f
       0.023277580253361227 0.025731985509175853
0004c0 c5 05 54 c0 48 02 99 3f 09 1e e9 ef a1 de 99 3f
       0.024422775973112616 0.02526333834455666
0004d0 d8 89 5e f0 e1 b6 99 3f b2 b1 85 6a a9 e1 98 3f
       0.02511170415494654 0.024298331381417966
0004e0 35 21 65 c7 20 21 98 3f 06 28 2f 33 3a 68 98 3f
       0.023563873453242585 0.02383509576228706
0004f0 51 c7 c4 a3 e2 cd 98 3f f2 12 a1 78 75 85 99 3f
       0.024222890134473932 0.024923167693731103
000500 25 80 fc ee 6d 03 9a 3f d5 d7 90 fb f7 f8 9b 3f
       0.025403707229202283 0.027316927651746276
000510 bd 4f 28 c0 c8 03 99 3f f9 7f 4a 09 65 df 99 3f
       0.02442849800907231 0.025266245548323216
000520 7e d3 75 53 d2 97 88 3f 08 5d f6 96 8a b2 8a 3f
       0.01200832669449325 0.013035853130345845
000530 71 ff b8 b9 c8 0a 94 bf 29 a5 2e 4d 90 bd 99 3f
       -0.019572388015375922 0.02513719054301081
000540 c9 5a 0a 1e 29 af 89 3f 1f d2 9a ae 7f e8 89 3f
       0.01254112360883876 0.012650487438215894
000550 15 98 b0 1a a2 23 94 bf 68 59 18 f7 29 24 8c 3f
       -0.019667179945962305 0.013740852216000035
000560 78 8d 04 45 03 6d 94 bf 61 66 3e 89 06 66 96 bf
       -0.019947100722800454 -0.021873571516698557
000570 e6 a0 5a 67 11 e4 8e 3f 70 d6 95 78 5a 04 8a 3f
       0.015083442656149203 0.012703615956279196
000580 e0 cc 3b 42 dd d9 98 3f b9 62 f6 0c 32 c8 93 bf
       0.024268586318567098 -0.01931837276569823
000590 e8 59 e2 b5 93 7b 95 bf ad 4a cd 65 ca a5 94 3f
       -0.0209792213214203 0.020163691009040963
0005a0 8b 4a ee cd d6 1e 8b 3f 65 ca 93 55 3f 14 8d 3f
       0.013242414626607931 0.014198775099861291
0005b0 64 4f a8 b4 1e e2 84 bf 5f bf 27 bd 9a e6 8d 3f
       -0.01019691456625766 0.01459999933010153
0005c0 75 e6 3d e9 24 e2 8a 3f 47 ba b0 5a ca 79 8a 3f
       0.013126648300146851 0.01292760934128724
0005d0 09 f5 c9 ab 09 56 99 3f 0c a6 2c 0c 8a c6 94 bf
       0.024742270574724255 -0.020288617127482353
0005e0 19 b8 bc f0 fe 12 95 bf 05 2a a6 bc bb 65 95 bf
       -0.02058027595847287 -0.020895894421792977
0005f0 9d 55 56 8b 81 bc 8a 3f 40 23 08 f9 79 6d 8a 3f
       0.013054859223113275 0.012904122269007723
000600 42 e7 14 af 10 a4 95 bf d1 8c 8f 30 3a e7 89 3f
       -0.021133671461235133 0.012648062331157924
000610 87 a6 e9 fc 30 5c 99 3f 2d a4 fb 46 5b f2 7e bf
       0.024765744625631327 -0.007555347968925691
000620 cd 91 0b 03 c9 ae 94 bf f2 8d be 1c 26 6d 86 3f
       -0.020198002634872304 0.010950372459610034
000630 53 5a cb 97 09 d8 89 3f 7e c2 f0 76 da 5b 8a 3f
       0.012619090027709811 0.012870508913779274
000640 bc ae c5 56 6c b6 8b 3f 23 79 3a 24 52 46 8c 3f
       0.013531538389279667 0.013806001406291351
000650 12 93 16 c8 c5 8a 8b 3f 08 8a 0a 56 9b e8 98 3f
       0.013448281449038233 0.024324824453865218
000660 5e 38 74 69 33 1b 8b 3f 00 d5 26 b2 c8 28 8a 3f
       0.013235475211811284 0.012773101746328397
000670 e5 06 c4 e9 62 6e 8a 3f 96 b3 e9 9d 06 c7 8a 3f
       0.012905857809986052 0.013074924177283436
000680 dd fe 9d 59 e4 54 87 3f 7d 0f 3d 37 f3 f6 8a 3f
       0.011392387375735275 0.013166332362409378
000690 26 4c ff d7 5b 0e 94 bf e8 09 af 86 45 5d 8a 3f
       -0.019586024340082407 0.012873213932725627
0006a0 f8 7f db fe 46 ef 97 3f 48 28 08 3c 30 ed 8a 3f
       0.02337370806242231 0.013147713501002425
0006b0 5a 8c a2 2c 8d 9e 8a 3f f2 5b 5c 16 91 9f 5e 3f
       0.012997725414896678 0.001869098364698504
0006c0 41 cf 1f fe fd 50 8a 3f d4 43 17 e6 c1 4d 8a 3f
       0.012849792783505289 0.012843623003307693
0006d0 25 6f 8b fd 1d 79 89 3f d5 4f 49 de ab d3 8a 3f
       0.012438043880528557 0.013099043580190465
0006e0 4c 0f bf a3 7d d6 98 3f f5 db 77 c6 64 1d 8a 3f
       0.024255717391283668 0.0127513764445961
0006f0 c2 2b a0 1c ef 69 94 bf 27 9a 8e 17 a0 90 8a 3f
       -0.019935356256649113 0.012971163481620597
000700 1c ee 92 f6 68 ab 98 3f f2 4a fd 85 5b c1 94 bf
       0.02409137730567866 -0.02026885037714527
000710 7a ab 8a cb 81 a1 8b 3f 67 99 7e 44 7c 33 8a 3f
       0.013491643928622333 0.012793513145720593
000720 48 7a da c2 f9 1c 8a 3f 9e 4e 1a 70 67 cf 8a 3f
       0.012750579127268527 0.013090904339413453
000730 bd 7d e0 e1 14 1c 95 bf 60 7c 55 7e e9 9d 89 3f
       -0.020614935194428464 0.012508224647431898
000740 bb 86 3a 6a ac f3 89 3f 4e f5 c9 81 4b 3e 8a 3f
       0.012671801559295806 0.012814130686133265
000750 4d 71 9a 86 49 36 89 3f 0a aa 94 73 30 88 94 bf
       0.01231057588602682 -0.02005077081154564
000760 11 75 4d b7 ed 24 8d 3f c9 0c 4c df bc bb 94 bf
       0.014230591923189569 -0.020247412804576457
000770 00 eb 16 3f d8 77 ac bf 21 7b c4 ec 34 72 8b 3f
       -0.05560184259544165 0.013401425815172953
000780 37 9a 12 f4 81 8b 8a 3f 51 f7 16 df 99 d0 8a 3f
       0.01296140218830742 0.013093187447221462
000790 69 cb 92 3c a9 bc 8a 3f d4 ec af 2a 40 5e 8b 3f
       0.013055154954008068 0.013363362601003827
0007a0 da 9f 88 90 7a ed 89 3f 6e fb aa 75 b0 49 96 bf
       0.012659986053293371 -0.02176547735393391
0007b0 a1 29 f1 fa 46 25 8c 3f 4d af f9 ef 9e b0 89 3f
       0.013742975743430476 0.012543908785310665
0007c0 e9 0e 8c f3 11 84 89 3f ec 0a 54 a9 9d b3 8a 3f
       0.012458935017554977 0.013037902574529046
0007d0 3b 21 1b 91 0f f1 93 bf c6 8c 97 38 75 75 b0 bf
       -0.01947426150471297 -0.06429226524010109
0007e0 55 af 99 e8 5e fd 8a 3f 6b 7f c5 b2 95 d6 85 3f
       0.013178578828238289 0.01066319419686553
0007f0 15 1d 73 b6 ab a2 8b 3f fc ac b1 32 a9 ac 8d 3f
       0.013493863587781743 0.014489480838355544
