MachineLearning_CS517-Proj2/random_pca_model_50.pkl_01.npy (npy, 672880 bytes, 1 tensors)

array f8 [50, 1682]
00000000: 21ff f559 cf0f e5bf 196c 91f4 b762 e0bf
00000010: f0da b303 0e3e dbbf 85c5 e69b 86d3 56bf
00000020: 87f2 ae7f 7807 cdbf cc72 54d6 9e4d 833f
00000030: f237 ae12 b21e c6bf 4078 2706 2b17 94bf
00000040: 7383 f493 518c 833f 4cb5 f675 eadd 96bf
00000050: 6c38 a1ed efd7 a23f 188a fdf4 f034 823f
00000060: 6753 5afd 6368 63bf b681 c85b 1155 913f
00000070: 0dc4 3776 a5ed 81bf 2561 c97c fea7 893f
00000080: 6cfc 682a 6325 773f 57cb fae1 5780 7b3f
00000090: c590 780c 9884 723f ad8b 03ab c0e8 45bf
000000a0: 0002 4958 ac55 793f 535a 1de0 3544 93bf
000000b0: ea98 151c fb37 88bf b4f3 f599 064e 7f3f
000000c0: 9ee1 a86f 0a08 13bf 6d8e a398 e156 82bf
000000d0: 635e 4c66 036a 9dbf dce0 3daf 57bf 4cbf
000000e0: 404a d023 6f71 a0bf 104a 1d33 63f4 95bf
000000f0: 6201 d1ef c480 473f 0065 a23e ba43 763f
00000100: 54d4 b284 573b 723f a3e0 e5e1 98af 963f
00000110: 97ba 581b fbe1 313f 4489 4ef2 701a 873f
00000120: 1cdc c8a4 ee63 76bf 2757 cdda 0347 813f
00000130: 5b93 dd65 a4d3 75bf afef 79b2 8c54 7d3f
00000140: 1f6b c4a7 6d0c 573f 9703 c54b 28ef 613f
00000150: 4616 510f 1ceb 47bf 84b1 8e0b 264e 70bf
00000160: 59cd 0002 55d0 903f 563b 125d b5e3 91bf
00000170: ba0b 624a e720 71bf 90ca 9fee 6406 7c3f
00000180: bc7f 3cdd 29cb 71bf 3a45 8f7e 3ca7 97bf
00000190: ba06 13da 850e 69bf 218d 05f9 dec5 783f
000001a0: a460 b667 5671 813f 6c34 fe97 f0d9 7c3f
000001b0: 1556 962f a151 6ebf 889b 1aec 4762 7c3f
000001c0: fb15 9993 800c 283f b937 8743 b651 7fbf
000001d0: c93a f84f 721f 563f c099 c3ab 1e6a 723f
000001e0: e432 08d3 3cf1 383f ef44 a34c 8d5e 6e3f
000001f0: bb1f 304b 5fe5 553f 0c17 968b 29ba 73bf
00000200: 685d 1e6e cbcc 7dbf 5224 ed8e 3e33 45bf
00000210: 8c6c bdec df4e 6ebf 97e9 c0bc 7224 59bf
00000220: 0d5d dca8 7116 783f b823 e85f a921 71bf
00000230: df66 3194 017e 803f 6ca0 2c49 0b94 773f
00000240: cafb b593 aacb 70bf 56b2 ebab 5c41 703f
00000250: 7f91 ab2d 6665 50bf ae25 7cee 5b35 67bf
00000260: 56fd 9801 cf5e 7e3f 2fae f5bd bb3d 70bf
00000270: 7492 ba6f a353 703f b894 e108 d5cf 80bf
00000280: be28 4966 85b4 82bf 9cb5 9f10 aecb 633f
00000290: b1d5 d5da f71a c83e fe97 bf4f dd74 7b3f
000002a0: 7aca aa76 3036 6a3f 93a1 4453 8950 843f
000002b0: cfc1 749a 65dc 723f 871f f934 c108 753f
000002c0: 3554 ab42 61fa 61bf b8b2 fbba f937 7ebf
000002d0: 1e8f 075e a1a6 86bf 8744 2454 c128 f13e
000002e0: 1548 f9ec 66a2 703f 2555 3798 987c 813f
000002f0: 0ce6 630e 0b8a 13bf 442c de59 6982 6c3f
00000300: 7dc4 60ea 4dbf 46bf ba60 ec2f 60d2 623f
00000310: e472 246f 18cc 10bf 0225 ac19 df1e 79bf
00000320: 5600 ada3 f337 513f 2beb 1af0 2bc2 73bf
00000330: d0ed e4ee f367 5b3f ab13 52f5 9f0a 60bf
00000340: a8cd ff41 e130 693f 5b01 8bb6 e98b 55bf
00000350: 2fe0 d103 0900 72bf 1889 83cd 442a 43bf
00000360: 8175 cfe5 6b06 91bf 2533 6239 c0de 723f
00000370: 40aa 64f9 be4c 62bf b011 5a80 e459 813f
00000380: c6e4 c206 f1e7 833f 5b21 0680 88df 7d3f
00000390: 7671 4523 cdbd 713f a9e2 8865 848c 63bf
000003a0: a5bb 1203 4ab9 7fbf fc72 603e 11e6 6abf
000003b0: cd39 c9b2 1bbc 5a3f 3605 9d95 147f 89bf
000003c0: 4cbe 7825 c25a 55bf 26dd 7c6a 7e09 80bf
000003d0: d08b 6503 e7f8 60bf 7e79 2cdb 04b2 733f
000003e0: aab1 9acb a547 9fbf 6ec3 c562 e546 5f3f
000003f0: aab1 9acb a547 9fbf 54fb 6b23 2739 703f
00000400: b33b 8c89 84f1 41bf 3cae efa9 2cdc 4f3f
00000410: 43ea 9b25 69d1 493f fc6e 4007 b534 7a3f
00000420: 645c cfff ffbb 703f dbfd 3ca3 b2f7 64bf
00000430: cb52 775f 8bcf 483f 70c3 16a7 9a76 72bf
00000440: 0912 6fa6 85e0 90bf df45 ae98 ada4 7ebf
00000450: 7f24 3292 3af2 5fbf 5c54 787c 2742 773f
00000460: 936e 2c5e e8ac 7cbf b046 eb5e 71b8 573f
00000470: 3d73 a027 8863 703f 059f 0c87 4a56 87bf
00000480: 7964 6b65 615e 7a3f c1ee 1bda 028d 59bf
00000490: 7251 1850 fce1 7e3f d38c 9278 0f49 60bf
000004a0: 2840 1bb9 6694 78bf 309d 9f0b 0de5 83bf
000004b0: 4dfd 9977 b469 693f 8bd6 c763 a154 7ebf
000004c0: 4ffe 74e1 797f 753f 9740 92bb cab9 69bf
000004d0: 5f80 f458 7e37 4f3f 79b4 8906 fade 663f
000004e0: db50 1e21 3f62 81bf 02ff 29a0 1d2c 723f
000004f0: d96d 0e8a 1ff2 5c3f 051a 736f b429 5dbf
00000500: 0f83 1e84 dc38 173f e087 5290 7dc4 63bf
00000510: f53c d699 603a 88bf aa82 7dca 07ae 6d3f
00000520: 894a 954e 9491 773f c25c 5eb4 a1e8 8cbf
00000530: 2a7e 5bde ffa7 563f d164 a5e5 36fc 6b3f
00000540: bc88 1ef4 c9f6 8dbf 3bb2 6d1e 57ba 413f
00000550: 9f60 17d3 8c01 72bf d9c3 9c95 c57d 8abf
00000560: aec4 1dd1 3485 263f 1a02 cbf3 57b5 63bf
00000570: cd9c 29e3 ecd2 173f a676 ae7b c2e2 6c3f
00000580: 7a4e 40ea 369e 4f3f 0222 0dcd cac6 87bf
00000590: 7f83 188a 6156 773f 5410 1db0 6c81 4ebf
000005a0: dbe6 052c 3cd1 46bf 4a33 5bc1 79ac 6ebf
000005b0: 1222 9ab4 3f8e 6b3f b5ad f701 3138 73bf
000005c0: dc89 072a 8905 7bbf 1045 f281 1fee 82bf
000005d0: fcbe 98ec c94d 703f 1395 399b 2f4d 4e3f
000005e0: 051f 73e8 4e25 5e3f 5770 0c4e fde2 653f
000005f0: f0f3 e114 aec2 2fbf 2e42 ccde 2d2f 823f
00000600: d9f0 23e4 c02c 3c3f abaa 52a3 444d 97bf
00000610: 8179 05f1 4147 583f bb2b a886 d695 673f
00000620: 1b7f 9477 f09f 723f 9b6d b0f1 0da1 67bf
00000630: b526 b25c 9f4a 59bf 6ab1 0534 4749 6d3f
00000640: 96ce b5d4 1e94 7b3f 8913 1400 92ac 73bf
00000650: c0c9 bb43 6e3b 5a3f 7acf 33e3 48b1 55bf
00000660: f40a 924f cbf0 723f 7e49 14ff d4db 793f
00000670: 676e d089 06b0 603f f69c 49e2 a7e7 59bf
00000680: 9768 af01 dc6b 363f 9ccc 8ba0 6b8b 663f
00000690: 47a5 e638 f62e 88bf 6110 0633 ab48 7c3f
000006a0: a497 5fbd 0d87 56bf 0f49 fc76 2067 77bf
000006b0: c196 9cb6 4948 463f 036e 5014 c77e 55bf
000006c0: a2a0 7471 d64a 533f b490 f5be 7734 78bf
000006d0: 6672 3540 3e34 753f c269 fab4 9265 31bf
000006e0: 8935 411f e831 4a3f 1935 6f3d deba 56bf
000006f0: 3202 a854 ad16 683f efc7 5f6a b950 473f
00000700: cd93 f7a3 8e09 723f 2c10 1171 7b61 703f
00000710: 551c 7508 721b 673f 740e e4c9 c933 89bf
00000720: 5ef1 9b0c 2a8b 65bf a54a e841 285f 6bbf
00000730: 5b75 0c6d 101d 433f dec9 72c1 a4d3 653f
00000740: c866 d559 a482 51bf 9253 b104 48ad 703f
00000750: 9231 7889 118f 65bf d92e c388 d672 2a3f
00000760: cbec 358c 4fd0 65bf c235 1c97 8be0 5f3f
00000770: d162 3286 9c75 553f 4e61 18f7 3d0c 62bf
00000780: 135e 8ff7 73a1 5b3f 1184 de74 f58f 4e3f
00000790: 1767 1e32 39bc 71bf 7510 31bb 0da1 7a3f
000007a0: 30f2 478b d246 7b3f 29b4 070a bd8c 77bf
000007b0: 7777 7c86 069e 65bf 1597 da4f 0dc7 6ebf
000007c0: f59a 39bd b2d6 733f b3b6 1eb0 dcc2 a2bf
000007d0: 21ad 7f20 39d3 383f e3fd c121 c1e8 7fbf
000007e0: 87a8 c3ca eb24 40bf 234a 40ba 9536 423f
000007f0: 05b6 72cf af6b 72bf 5c37 60f7 8239 703f
-0.6581799275445271 -0.5120506073684538 -0.42566252099588464 -0.0013932051220816044 -0.226790487618832 0.009425393024281269 -0.17281175529609488 -0.019619629145261053
0.009544980361683142 -0.02233091683381376 0.03680372024301523 0.008890039898408239 -0.0023691132472073886 0.016926070429805505 -0.008754055662366889 0.012527454550920478
0.005650889745594783 0.006714194576192898 0.0045209826853673295 -0.0006686154138403254 0.0061852199765444205 -0.01881488972079588 -0.0118255250878971 0.007642770563845259
-7.259906480150963e-05 -0.008954775305432617 -0.028724721068185476 -0.0008773019930990128 -0.03211543380907189 -0.021440076823021015 0.0007172547917733525 0.005435683744644537
0.00445112406594202 0.022154225146977635 0.0002728689245001052 0.011280901331535483 -0.005466396524346908 0.008436231722651023 -0.00532879083570922 0.0071607109053920944
0.0014067717411935866 0.0021892344504128125 -0.0007299315462964771 -0.003980778325893278 0.016419723746549184 -0.017470201306930853 -0.0041817698275989305 0.0068420355473671896
-0.004344142467544939 -0.023098893379772202 -0.0030586828512192106 0.006048079478520736 0.008516955413867607 0.007043781108120855 -0.0037010334169263006 0.006929665514383461
0.0001834780648996419 -0.007646285980127781 0.0013502708751535356 0.0044957349857441264 0.0003805898186619984 0.003707195258450306 0.0013364248850411392 -0.0048162100660016464
-0.007275385521914181 -0.0006469779453733926 -0.0036997197657178734 -0.001534568832552629 0.005880779250012636 -0.004182492847129397 0.008052837691298219 0.005756420216847951
-0.004100481335057313 0.003968584059049171 -0.0010007379375390477 -0.002833060792799733 0.007414635294082336 -0.003965123526863886 0.003986013816448353 -0.008208908399135559
-0.00913337915803358 0.002416458101825737 2.873580987989697e-06 0.00670324754535123 0.0031996676019273003 0.009919236043587165 0.0046047181015613356 0.005135302271419457
-0.0021945857637129204 -0.007377601155650275 -0.011060009653142407 1.636428829338403e-05 0.004061128667290266 0.0085384293987923 -7.453625184785528e-05 0.003480153812181837
-0.000694191975304417 0.0022975805908452525 -6.407641538825785e-05 -0.006132956967811911 0.0010509375849352596 -0.004823848373855448 0.0016727335128753247 -0.001958191317103138
0.0030750655714599402 -0.0013150961259925295 -0.004394564833198485 -0.0005848728133311136 -0.016626058484566556 0.004606963039020672 -0.00223386096617631 0.00847223774622638
0.009719737070883371 0.007293256000032801 0.004331399268576388 -0.002386339747570372 -0.007745064839737835 -0.0032835327902048777 0.0016317625515004264 -0.012449417892301012
-0.001303376766269698 -0.00783060801005193 -0.002071810910977835 0.0048084439938790285 -0.03054675154878487 0.0019089927764890063 -0.03054675154878487 0.003960755237811881
-0.000547589984394628 0.0009722917637850557 0.0007879031574867318 0.0063979216975231755 0.004085540768719562 -0.0025595177666273123 0.0007571630985077847 -0.004507640945505695
-0.01648148372966499 -0.007481268034909643 -0.0019498416884593803 0.005678323977481883 -0.0070008351201768125 0.0014477831970691017 0.0040011709734500385 -0.01139505600583802
0.006437664464749132 -0.001559498582024796 0.0075397354098821635 -0.0019879629295061845 -0.006000901472091903 -0.00971422378274997 0.0031021618604537894 -0.0074049286163152634
0.0052485238041409385 -0.003140350305848537 0.0009526602679308485 0.002791870432977958 -0.008488171766466148 0.00443660328403417 0.0017667110443885163 -0.001779962736507935
8.858533786205664e-05 -0.002413029901235028 -0.011830095953682543 0.0036230232398540467 0.005754069637378686 -0.014115584675705842 0.0013828276363979744 0.0034161636551003145
-0.014630868685177816 0.0005410123238625617 -0.004396009536741157 -0.012935203197772015 0.0001718165372568739 -0.0024058072870902893 9.088106961884224e-05 0.0035260962008141937
0.000964905561433984 -0.011609634764355729 0.00569761372892763 -0.0009309559538697256 -0.0006963294800208202 -0.0037443521531258838 0.0033637279746623417 -0.004692260204574185
-0.006597076222961875 -0.009243246224544893 0.003980435148647873 0.0009247286274784182 0.0018399496637346313 0.0026717135773548883 -0.00024231314677428074 0.008879049646140915
0.00042991360909617815 -0.02275569197505926 0.0014818328819142525 0.0028790655098922236 0.004547061276099186 -0.0028844139428778177 -0.0015436702986186105 0.003574980801366025
0.006733055527877637 -0.0048032477509466565 0.0016010834505634092 -0.001324006251533809 0.004624170477770962 0.006313163773727813 0.002037060518444811 -0.0015811099521217376
0.0003421222806402417 0.002752027711147754 -0.011808322535972094 0.006905239817914661 -0.0013749727418086244 -0.005713583770346155 0.0006800041130403321 -0.0013119644293116968
0.0011775106593834646 -0.0059094121528213035 0.005176776091812307 -0.00026545364105748034 0.0007994063767086539 -0.0013873262703215149 0.002940500771046816 0.0007115273808706561
0.004403645696105363 0.003999216264734467 0.002820704193854643 -0.012305809472770358 -0.0026298352503301555 -0.003341272952874635 0.000583298702710937 0.0026643960842076394
-0.0010687451352481715 0.004071503945927273 -0.0026316969413128855 0.0002017866976359226 -0.002662806860539745 0.0019456256090423095 0.0013097790295317111 -0.0022031030901069953
0.001686442612699572 0.0009326885717549934 -0.004329894467355342 0.006501248967712416 0.00665933841491699 -0.005749453005120344 -0.0026388289878828647 -0.0037570247648827195
0.004843424033970524 -0.036642929553051394 0.00037880081845172343 -0.00779033128867421 -0.0004926825836524409 0.0005558234302063852 -0.004497229346424718 0.003961097323566278
