MachineLearning_CS517-Proj2/random_pca_model.pkl_01.npy (npy, 672880 bytes, 1 tensors)

array f8 [50, 1682]
-0.6581885154402807 -0.512042838641398 -0.425662345874565 -0.0013884445698573306 -0.22678853928944112 0.009423616820053955 -0.17282149848053246 -0.019624972753963944
0.00954747391664389 -0.022335465483944716 0.036808125548187916 0.008882490505363516 -0.0023655434272823296 0.016916982684698812 -0.008755050014368625 0.012523631088642344
0.0056411566167561674 0.006716470387712406 0.0045197855419728105 -0.000668211057105366 0.006193755692862565 -0.018822328729781602 -0.01180156896172853 0.007654989864392697
-5.843319773201625e-05 -0.008943178048766202 -0.02871622828910772 -0.0008781409007204659 -0.03212361256591259 -0.021438927334869986 0.0007139422726264449 0.005448268794230073
0.00445126813761559 0.022154401770077697 0.0002747014931412676 0.0112969257597287 -0.005468315577889066 0.008438617796532792 -0.005324983187480465 0.007163945396425301
0.0014058962818996811 0.0022030858338063803 -0.0007325442244784368 -0.003986379297435625 0.01642145628841394 -0.017464906820560934 -0.0041840691464950066 0.006844437931611028
-0.004342718672172415 -0.023099022214354194 -0.003060957739687444 0.006047754592783319 0.008513421626978357 0.007034422944230258 -0.0036980574570677784 0.006960824259073035
0.00018702881050689085 -0.007641942775048641 0.0013477102176743122 0.004498201321816703 0.00038729756313962455 0.0037044247454509926 0.0013477603531702115 -0.004817660008485011
-0.007273686233641309 -0.0006533864372506049 -0.0036995167771569034 -0.0015333311336991654 0.005870247363275717 -0.0041821858677037645 0.008051000144215142 0.005761100288280748
-0.004097516407218562 0.003959041127088523 -0.0009959981745139936 -0.0028365909920873415 0.00740620566636367 -0.003964278264262097 0.0039691711116103656 -0.008212623258837462
-0.009118480052296611 0.0024130751186380393 1.0299067265709737e-05 0.006694848848275916 0.0031958002945451313 0.009896693801370924 0.00460451987137566 0.005140894565672432
-0.002184598286665568 -0.007374362563344996 -0.011065430615161118 4.593997517863021e-05 0.004059417047555146 0.008536254138768804 -7.541134777280713e-05 0.0034884589423384823
-0.0006965612120127658 0.0023012439972635848 -6.548895607123071e-05 -0.0061330389134961446 0.0010613768650134087 -0.004816856577570527 0.0016641344645965128 -0.0019631906027765466
0.0030725608699806992 -0.0013201743067584122 -0.004402722360875159 -0.0005849077674587454 -0.016623007848939313 0.004602915146826575 -0.002235496717890328 0.008473718608743984
0.00972762319310141 0.007292800672828275 0.0043332569902955415 -0.002387279760161821 -0.007748240119856112 -0.0032853943332930894 0.00163632469667278 -0.012452548338531435
-0.0013054493412571087 -0.007830699671665194 -0.002074230085804148 0.004818181509584201 -0.030536150378371485 0.001918157747174027 -0.030536150378371485 0.003959014218249576
-0.0005479981106277369 0.0009718593136594174 0.0007911508282614596 0.006411075527253623 0.00409268774517146 -0.0025592624492079964 0.0007580832825397831 -0.004509755331005083
-0.016476466790350416 -0.007474123477658611 -0.0019506141435841396 0.005675171032666863 -0.006991959715428351 0.0014439565977634402 0.003999762589743866 -0.011394340242408004
0.006429837104748526 -0.001560421090937522 0.007520246061193662 -0.0019797028516690975 -0.006008521619087854 -0.009710794236230056 0.0030960582644495036 -0.007392134222520511
0.005252470620062018 -0.0031344135206440907 0.000940474385340207 0.002794609030895824 -0.008489301300937453 0.004435366121796835 0.0017829103499664445 -0.0017867378314001348
8.462868775113664e-05 -0.002414192322146094 -0.011835228516923991 0.00361137260977717 0.0057479919286086 -0.014096387670742427 0.0013873644072902103 0.0034154616229799266
-0.014634325643971626 0.0005378395137236803 -0.004399605135217796 -0.012934253663943332 0.00016280414468790536 -0.002402143800850883 8.790672304805288e-05 0.0035440649100235465
0.0009631892108260468 -0.011611261905657679 0.005715147079863627 -0.0009308600562955169 -0.0007217882349204044 -0.00374431405719457 0.0033825469949128046 -0.004697284268719429
-0.006603864953139778 -0.009239089709107414 0.003983354864434211 0.0009292892311858394 0.0018419955108087494 0.002670954362299736 -0.00022791791890058172 0.008869049003287421
0.0004296251406979619 -0.022766926967033817 0.0014815930947348506 0.0028783845376091043 0.004533152332731387 -0.0028828925563355997 -0.0015537113190163764 0.0035822198782655087
0.006733937187510833 -0.004802544735474901 0.0016084772735773416 -0.0013266788988628006 0.004655762351772322 0.006304206868903534 0.0020364643912845876 -0.0015846377219892644
0.00034155801887645666 0.0027490129978901376 -0.011810673579914813 0.006899209061548181 -0.0013703917695336728 -0.005712369421168471 0.000681142275657772 -0.0013124104081274368
0.001168088392184375 -0.0059148362324174175 0.005181595965913647 -0.00026896330110928203 0.0008015386705508201 -0.0013884504386661555 0.002955916162708079 0.0007184803801722083
0.004412703967082119 0.003985153182050023 0.002820502578506656 -0.012308182716070754 -0.0026283153299752763 -0.003342192155816202 0.0005846138350875304 0.002664122362668211
-0.0010757235610138224 0.004071086118766664 -0.0026326627737298714 0.00020446357883889394 -0.002656342488370048 0.0019383985501215133 0.0013164501918642424 -0.0022123276144668715
0.0016815816362416647 0.0009353032928257961 -0.004331271062790672 0.006505439747489881 0.00665628392558643 -0.005748878337105022 -0.002634312003155561 -0.003755393303665413
0.004832024952752358 -0.03663119439484247 0.0003694185197542099 -0.0077829325611987734 -0.0004929634378508851 0.0005568864572436939 -0.004497209111781552 0.003959774083524902
00000000: c866 8d5c e10f e5bf b6b4 c3a9 a762 e0bf
00000010: 98df aa47 0d3e dbbf 4028 4501 8fbf 56bf
00000020: 9189 ad27 6807 cdbf aad6 6a70 b04c 833f
00000030: 4682 02ce 031f c6bf 0a15 a7a0 9118 94bf
00000040: 7ae7 d941 a08d 833f 008c 2db7 1bdf 96bf
00000050: 31be e9be 83d8 a23f 8d0e d2b1 fb30 823f
00000060: daca 0975 e760 63bf add8 827d af52 913f
00000070: 4c78 e4eb 2aee 81bf 9c83 9f4f fda5 893f
00000080: afa9 e372 2e1b 773f 9072 8eca ba82 7b3f
00000090: 4e3f 67b1 5683 723f 9344 8c51 5ce5 45bf
000000a0: bc7f 3ea2 9f5e 793f 5ade 5019 2946 93bf
000000b0: e95d dbc5 6b2b 88bf e083 e6b1 d65a 7f3f
000000c0: c9fc d562 c5a2 0ebf bc1d ef09 cd50 82bf
000000d0: e8f9 7675 c967 9dbf db7b 9539 61c6 4cbf
000000e0: c4c8 cc92 8172 a0bf e7ef 0e0f 16f4 95bf
000000f0: 0524 285b fb64 473f dc14 a884 ec50 763f
00000100: bc83 3a31 7e3b 723f 8b7c 42bc a4af 963f
00000110: 1b52 e0ed b900 323f 2a8d 77b5 d722 873f
00000120: 7acd 23c9 f165 76bf 8f29 ad1b 4448 813f
00000130: 2e8b 454a a6cf 75bf 91f3 01f3 f057 7d3f
00000140: e153 59a3 c108 573f 4447 68b3 340c 623f
00000150: fa4b 56be 0601 48bf 8a18 648b 0554 70bf
00000160: 7a81 d846 c9d0 903f aaec 7c0e 52e2 91bf
00000170: 4dd7 5f82 5023 71bf ea5b 36d1 e908 7c3f
00000180: 956a c3aa abc9 71bf 17c1 eb23 45a7 97bf
00000190: 6b5a 5d2c 4b13 69bf 2937 0bc3 87c5 783f
000001a0: d32d b81b 7c6f 813f db01 de87 20d0 7c3f
000001b0: 435a c77a 634b 6ebf d418 bc08 f482 7c3f
000001c0: 2f4c c33f a583 283f b76f bf64 284d 7fbf
000001d0: c525 cdd3 b414 563f 2da3 16b9 b46c 723f
000001e0: d4d1 145e c661 393f 4506 3be4 bd58 6e3f
000001f0: 5f08 f1a8 ea14 563f d602 e0c2 aebb 73bf
00000200: e8ec ea47 03cb 7dbf 1516 98b0 0069 45bf
00000210: 755d 34f2 724e 6ebf 91ec aec4 411f 59bf
00000220: 287d 1d87 660b 783f d4f8 70f8 5621 71bf
00000230: 9053 8ef2 0a7d 803f 3cf9 3b95 f398 773f
00000240: 02d6 6baf 8ec8 70bf 573c a102 5b37 703f
00000250: aacb 87e5 8451 50bf 1d6e 6131 c33c 67bf
00000260: aee0 fd31 f855 7e3f bdbb f4d7 d83c 70bf
00000270: 2e92 dd41 fa41 703f 5515 7da2 c7d1 80bf
00000280: 2926 e9ac b5ac 82bf 9476 f4d6 95c4 633f
00000290: 643a d806 4599 e53e 361d aecd 0e6c 7b3f
000002a0: f3df fc37 142e 6a3f ff2a b9c1 b744 843f
000002b0: 7773 2e64 30dc 723f 5f09 8260 9e0e 753f
000002c0: 8daa 4646 6fe5 61bf 7657 9d60 9434 7ebf
000002d0: d8be ddf4 78a9 86bf c6f1 1b87 f515 083f
000002e0: cb76 5c77 9ba0 703f 85d1 d9a2 747b 813f
000002f0: c047 f816 c5c4 13bf bad9 4322 d493 6c3f
00000300: 776b 08d0 2dd3 46bf bee9 aaf6 0eda 623f
00000310: c1d1 c3b2 e32a 11bf fddd ef18 f51e 79bf
00000320: 3638 22bb bc63 513f c0e3 8517 d7ba 73bf
00000330: 056d 80c6 e243 5b3f 6e63 e9ed 1b15 60bf
00000340: 7dfc 728e a02b 693f 2735 3e5e 36a1 55bf
00000350: 1e6d dac8 9608 72bf 84aa bfdd 8f2a 43bf
00000360: fb14 4a2c 9f05 91bf 2da2 59a0 81da 723f
00000370: b29d 6529 2d50 62bf ec86 6642 ab5a 813f
00000380: 0d82 db7b 13ec 833f b93c 2d46 0edf 7d3f
00000390: 998b efd0 bfbf 713f cfab e10f 7d8e 63bf
000003a0: 1d51 a95e 9ebc 7fbf cb1f e9a6 f8e9 6abf
000003b0: b0c2 b343 3ecf 5a3f a143 edbe b880 89bf
000003c0: 4cd2 8b8e 7363 55bf d1f0 f4b7 8a09 80bf
000003d0: 77c8 40cc f9fd 60bf d25e 28c0 3abc 733f
000003e0: d024 e25c de44 9fbf 1d4b bb32 566d 5f3f
000003f0: d024 e25c de44 9fbf 49ef 77c9 5337 703f
00000400: 7e36 51fb f0f4 41bf c928 f7fb 8bd8 4f3f
00000410: 5ac1 7f77 a7ec 493f 863f 8cfb 7f42 7a3f
00000420: fcc1 4a80 7ec3 703f dfe8 ad90 29f7 64bf
00000430: c2cf fc73 43d7 483f 9ad6 8d3a d278 72bf
00000440: 1f9f 12f8 34df 90bf 65e8 71be 2f9d 7ebf
00000450: 9a34 0bfd 77f5 5fbf 518e c01f d93e 773f
00000460: a4e0 00e5 99a3 7cbf 65aa 4f97 64a8 573f
00000470: ed44 3c18 0e62 703f abe8 9a75 ea55 87bf
00000480: 7306 5641 2c56 7a3f 269d 6d63 e190 59bf
00000490: 374e 40ae 8ccd 7e3f 8372 1ee0 bc37 60bf
000004a0: a1e3 9e3d 649c 78bf 9f66 4dbd 40e3 83bf
000004b0: 4218 c19f e75c 693f 11e0 bbeb 3647 7ebf
000004c0: c8f5 9458 9d83 753f 8b9b 0672 57ad 69bf
000004d0: 384d 275d 45d1 4e3f 50d9 914c b8e4 663f
000004e0: e498 a0bb d662 81bf f3bf 0587 d12a 723f
000004f0: 857f 4469 1136 5d3f a959 5a23 1f46 5dbf
00000500: e037 e7c8 552f 163f b963 3ca2 edc6 63bf
00000510: c7f3 5d7b 113d 88bf f5d0 15e8 9895 6d3f
00000520: 4fe2 9dd5 348b 773f d3f4 4c20 91de 8cbf
00000530: 1fcd 7130 07bb 563f 410d 16ff bdfa 6b3f
00000540: 8ea8 51f0 99f8 8dbf c3b8 9b8f b99f 413f
00000550: 30b8 bc02 5205 72bf 55e1 e023 467d 8abf
00000560: 55da 44f4 cc56 253f c404 1422 a9ad 63bf
00000570: a1a4 9a00 520b 173f ca3d 455c 7108 6d3f
00000580: bb9b 8614 d18f 4f3f 9462 3331 a5c7 87bf
00000590: 6929 cc1c c468 773f 8d54 ddbf 9e80 4ebf
000005a0: 881f 8b6e cca6 47bf 27c7 7d4d 65ac 6ebf
000005b0: fff8 0c17 b7b5 6b3f 1dd2 06a5 753d 73bf
000005c0: 62d5 0380 a70c 7bbf 5ed5 29a1 f1eb 82bf
000005d0: 5e0e f0ad d950 703f b0bf a06d 7173 4e3f
000005e0: a481 9c9e e32d 5e3f 6271 53b4 65e1 653f
000005f0: 00f7 0404 a8df 2dbf f36f 539b ef29 823f
00000600: 6945 c8ed e927 3c3f 33ec 039b 3650 97bf
00000610: 4bca d278 4046 583f b8fa 89ee 6894 673f
00000620: c516 45d0 5a91 723f 5e3c ea27 dd9d 67bf
00000630: e6cd 5dd3 bc74 59bf 75e7 2ca7 7558 6d3f
00000640: 1d1a e67f 0b95 7b3f e71a 3949 d5ab 73bf
00000650: 4ff3 5352 715a 5a3f 3cfb e79e 7ebc 55bf
00000660: 6af7 9eb0 eb11 733f 7a3c 44a5 70d2 793f
00000670: 1b9d b87e c6ae 603f 55f0 48cc 73f6 59bf
00000680: a496 5085 6462 363f 59cd 821d 1985 663f
00000690: 75dd 27c6 3130 88bf 8a13 9a54 5842 7c3f
000006a0: c67d 4df5 d673 56bf f1a0 8b7d da65 77bf
000006b0: 12b5 20e6 d551 463f 8a9f 09f2 a580 55bf
000006c0: 6a85 5e5c 5123 533f 97f0 dec2 273a 78bf
000006d0: 2a59 6f13 4c39 753f 9ec1 0395 74a0 31bf
000006e0: bbfd 3030 cb43 4a3f 33dd 794e 95bf 56bf
000006f0: 101d f467 0137 683f 8f04 2ade 0c8b 473f
00000700: 57d7 9b33 0e13 723f d41e 6269 bc52 703f
00000710: 33b0 a7ca 051b 673f 1de4 e851 0835 89bf
00000720: a2a1 580c fa87 65bf e29c 32c0 1561 6bbf
00000730: b5fe b7a6 1828 433f ec4b 72cd 11d3 653f
00000740: 0ede e660 e99f 51bf bf2e d4db d7ac 703f
00000750: 0d54 7710 1891 65bf c9b5 c7c4 a8cc 2a3f
00000760: 872f aa03 c1c2 65bf 07db 4798 3bc2 5f3f
00000770: 7bee 55a1 9791 553f eccc 1158 961f 62bf
00000780: 1f8c 8688 108d 5b3f 3ac5 fa86 e4a5 4e3f
00000790: af68 09b9 aabd 71bf a494 62af 72a5 7a3f
000007a0: 455f 5f9c 9e43 7b3f 7e10 25c7 228c 77bf
000007b0: 051a d57c 8d94 65bf 6b12 886d a1c3 6ebf
000007c0: 7514 54d2 beca 733f 98e7 e0eb 52c1 a2bf
000007d0: 1e4d fc75 d035 383f 7fc0 130d ffe0 7fbf
000007e0: 3324 feeb 4627 40bf 0193 8b8f 803f 423f
000007f0: 991a ef60 aa6b 72bf 193a 03c3 1f38 703f
